[2022-12-16 09:10:03][base_learner.py:338][INFO] [RANK0]: DI-engine DRL Policy
DataParallel(
  (module): MAVACv2(
    (encoder): FCEncoder(
      (act): ReLU()
      (init): Linear(in_features=6, out_features=128, bias=True)
      (main): Sequential(
        (0): Linear(in_features=128, out_features=64, bias=True)
        (1): ReLU()
        (2): Linear(in_features=64, out_features=32, bias=True)
        (3): ReLU()
      )
    )
    (critic_head): ReducedRegressionHead(
      (main): Sequential(
        (0): Linear(in_features=16000, out_features=64, bias=True)
        (1): ReLU()
      )
      (last): Linear(in_features=64, out_features=1, bias=True)
    )
    (actor_head): ReparameterizationHead(
      (main): Sequential(
        (0): Linear(in_features=32, out_features=32, bias=True)
        (1): ReLU()
      )
      (mu): Linear(in_features=32, out_features=1, bias=True)
    )
    (actor): ModuleList(
      (0): FCEncoder(
        (act): ReLU()
        (init): Linear(in_features=6, out_features=128, bias=True)
        (main): Sequential(
          (0): Linear(in_features=128, out_features=64, bias=True)
          (1): ReLU()
          (2): Linear(in_features=64, out_features=32, bias=True)
          (3): ReLU()
        )
      )
      (1): ReparameterizationHead(
        (main): Sequential(
          (0): Linear(in_features=32, out_features=32, bias=True)
          (1): ReLU()
        )
        (mu): Linear(in_features=32, out_features=1, bias=True)
      )
    )
    (critic): ModuleList(
      (0): FCEncoder(
        (act): ReLU()
        (init): Linear(in_features=6, out_features=128, bias=True)
        (main): Sequential(
          (0): Linear(in_features=128, out_features=64, bias=True)
          (1): ReLU()
          (2): Linear(in_features=64, out_features=32, bias=True)
          (3): ReLU()
        )
      )
      (1): ReducedRegressionHead(
        (main): Sequential(
          (0): Linear(in_features=16000, out_features=64, bias=True)
          (1): ReLU()
        )
        (last): Linear(in_features=64, out_features=1, bias=True)
      )
    )
  )
)
